…
3403  of  3662 Label:  0
3404  of  3662 Label:  0
3500  of  3662 Label:  0
3501  of  3662 Label:  2
3502  of  3662 Label:  0
3503  of  3662 Label:  1
3504  of  3662 Label:  0
3600  of  3662 Label:  2
3601  of  3662 Label:  0
3602  of  3662 Label:  0
3603  of  3662 Label:  4
3604  of  3662 Label:  2
[[1. 0. 0. 0. 0.]
 [1. 0. 0. 0. 0.]
 [1. 0. 0. 0. 0.]
 [1. 1. 1. 0. 0.]
 [1. 0. 0. 0. 0.]]
_________________________________________________________________
Layer (type)                 Output Shape              Param #   
=================================================================
conv2d_1 (Conv2D)            (None, 167, 167, 192)     28416     
_________________________________________________________________
p_re_lu_1 (PReLU)            (None, 167, 167, 192)     5354688   
_________________________________________________________________
max_pooling2d_1 (MaxPooling2 (None, 84, 84, 192)       0         
_________________________________________________________________
conv2d_2 (Conv2D)            (None, 84, 84, 256)       442624    
_________________________________________________________________
p_re_lu_2 (PReLU)            (None, 84, 84, 256)       1806336   
_________________________________________________________________
max_pooling2d_2 (MaxPooling2 (None, 42, 42, 256)       0         
_________________________________________________________________
conv2d_3 (Conv2D)            (None, 42, 42, 384)       885120    
_________________________________________________________________
p_re_lu_3 (PReLU)            (None, 42, 42, 384)       677376    
_________________________________________________________________
max_pooling2d_3 (MaxPooling2 (None, 21, 21, 384)       0         
_________________________________________________________________
conv2d_4 (Conv2D)            (None, 21, 21, 496)       1714672   
_________________________________________________________________
p_re_lu_4 (PReLU)            (None, 21, 21, 496)       218736    
_________________________________________________________________
conv2d_5 (Conv2D)            (None, 21, 21, 496)       2214640   
_________________________________________________________________
p_re_lu_5 (PReLU)            (None, 21, 21, 496)       218736    
_________________________________________________________________
max_pooling2d_4 (MaxPooling2 (None, 11, 11, 496)       0         
_________________________________________________________________
conv2d_6 (Conv2D)            (None, 11, 11, 384)       1714560   
_________________________________________________________________
p_re_lu_6 (PReLU)            (None, 11, 11, 384)       46464     
_________________________________________________________________
max_pooling2d_5 (MaxPooling2 (None, 6, 6, 384)         0         
_________________________________________________________________
flatten_1 (Flatten)          (None, 13824)             0         
_________________________________________________________________
dense_1 (Dense)              (None, 4096)              56627200  
_________________________________________________________________
p_re_lu_7 (PReLU)            (None, 4096)              4096      
_________________________________________________________________
dropout_1 (Dropout)          (None, 4096)              0         
_________________________________________________________________
batch_normalization_1 (Batch (None, 4096)              16384     
_________________________________________________________________
dense_2 (Dense)              (None, 4096)              16781312  
_________________________________________________________________
p_re_lu_8 (PReLU)            (None, 4096)              4096      
_________________________________________________________________
dropout_2 (Dropout)          (None, 4096)              0         
_________________________________________________________________
batch_normalization_2 (Batch (None, 4096)              16384     
_________________________________________________________________
dense_3 (Dense)              (None, 1000)              4097000   
_________________________________________________________________
p_re_lu_9 (PReLU)            (None, 1000)              1000      
_________________________________________________________________
dropout_3 (Dropout)          (None, 1000)              0         
_________________________________________________________________
batch_normalization_3 (Batch (None, 1000)              4000      
_________________________________________________________________
dense_4 (Dense)              (None, 5)                 5005      
=================================================================
Total params: 92,878,845
Trainable params: 92,860,461
Non-trainable params: 18,384
_________________________________________________________________
Epoch 1/300
 - 1434s - loss: 30.1590 - acc: 0.6970 - val_loss: 4.0326 - val_acc: 0.7262
val_kappa: 0.0005
Validation Kappa has improved. Saving model.
Epoch 2/300
 - 1421s - loss: 2.7272 - acc: 0.8342 - val_loss: 2.1550 - val_acc: 0.7273
…
